models/best_regression_model.pth (torch, 117954 bytes, 25 tensors)

weight f4 [32, 1, 4, 1]
0	0x3fba786a	1.4567997
1	0xc0037ef9	-2.0546248
2	0xbffea80e	-1.9895036
3	0xbbb5f811	-0.0055532535
4	0xc1972cfb	-18.896963
5	0xc19900ba	-19.125355
6	0xc1009308	-8.035896
7	0xc0b227ba	-5.5673494
8	0xc11e93be	-9.91107
9	0xc19a1b9a	-19.263477
10	0xc1148660	-9.282806
11	0xc0cc81ff	-6.3908687
12	0xbdb8291e	-0.089922175
13	0xc0731f31	-3.7987788
14	0x3f38f4b2	0.72248375
15	0xbef62b9e	-0.48080152
16	0xbccfd989	-0.025372284
17	0xc00f7e1c	-2.242072
18	0xbf9c6d8c	-1.2220931
19	0xc000babb	-2.0113971
20	0xc10c4533	-8.766894
21	0xc14f68e1	-12.963105
22	0xc194bf9c	-18.59356
23	0xc0206f6a	-2.5068002
24	0xbfa22f64	-1.2670712
25	0x4067776f	3.6166646
26	0xbf38735a	-0.7205101
27	0x3dc68eef	0.09695231
28	0xc10d4cc6	-8.8312435
29	0xc0fd8cb5	-7.923426
30	0xc1089791	-8.5370035
31	0xc18078b2	-16.058933
32	0xc163a9e1	-14.228974
33	0xc1caf0cc	-25.367577
34	0xc17931b8	-15.574638
35	0x406aaf36	3.666944
36	0xc10917e8	-8.5683365
37	0xc21f8298	-39.877533
38	0x40837538	4.108059
39	0x3fe36c26	1.7767379
40	0x4163e4ca	14.243357
41	0x417514ca	15.317575
42	0xc105730a	-8.340586
43	0xc13d630e	-11.836683
44	0xbfae5ab5	-1.3621432
45	0x3f213ca6	0.6298317
46	0x42187d5f	38.122433
47	0xc0dedc25	-6.964373
48	0x3e04645f	0.12928914
49	0xc1f48742	-30.566044
50	0x3d2a5d6a	0.041592993
51	0x3f07fe48	0.5312238
52	0xc0d9c44b	-6.8052115
53	0xc105e9a0	-8.369537
54	0xc10fc03e	-8.984434
55	0xc172155e	-15.130217
56	0xc1103009	-9.011727
57	0xbfa8b840	-1.3181229
58	0xc1c1cf2f	-24.226164
59	0x413aceb2	11.675463
60	0x3e954f6d	0.2916216
61	0xbf201ce3	-0.6254408
62	0xbef677c1	-0.4813824
63	0xbe05423a	-0.13013545
64	0x4109fed1	8.624711
65	0xc1a9b1d5	-21.211832
66	0xc13ccc96	-11.799948
67	0x40f879f8	7.764889
68	0x40d35496	6.6040754
69	0xc0b2252c	-5.5670376
70	0xc05c9fa1	-3.447243
71	0x41cf23a5	25.892405
72	0x40d83f29	6.75771
73	0x4184e259	16.610521
74	0xc10a56b4	-8.646168
75	0xc12c4fad	-10.769452
76	0xc1bb5fa5	-23.421701
77	0x3f827d7d	1.0194546
78	0x40ff1420	7.9712067
79	0x41167331	9.403123
80	0xc1ba5634	-23.292091
81	0xc18a51e6	-17.28999
82	0xc1274c6c	-10.456158
83	0xc0b977c4	-5.79587
84	0xc04cde58	-3.2010708
85	0xc0ad7831	-5.420922
86	0x3eece706	0.46270007
87	0x3f98fbee	1.1951883
88	0xc12347cb	-10.205028
89	0xc172b461	-15.169038
90	0xc1855531	-16.666597
91	0x3fd2737c	1.6441493
92	0xc096bd14	-4.710581
93	0xbfc36149	-1.5264064
94	0xc10c6c8c	-8.776501
95	0xc1bfb5ce	-23.963772
96	0xbe63066d	-0.2217042
97	0x3f05be0f	0.5224313
98	0xbf9916ee	-1.1960123
99	0x3d81f4da	0.0634553
100	0x40e7599b	7.229688
101	0xc19ed6d5	-19.854898
102	0xc14196d1	-12.09932
103	0xbfdfe90c	-1.7492995
104	0xc04c6932	-3.1939206
105	0xc07a2617	-3.9085748
106	0xbfe5f759	-1.796611
107	0xc01fb6de	-2.4955363
108	0xbe08bdaf	-0.13353609
109	0xbed8b444	-0.42325032
110	0xbf93e0cb	-1.1552976
111	0xbe05b11e	-0.13055846
112	0xbf92eff9	-1.1479484
113	0x3e43b421	0.19111682
114	0x3dc17ffd	0.0944824
115	0xbfb348fa	-1.4006646
116	0xc14b4acf	-12.705764
117	0xc0a0078c	-5.0009212
118	0xc1687ef4	-14.530994
119	0xc0d42b82	-6.630311
120	0xbf73ba61	-0.95206267
121	0xc00f8937	-2.24275
122	0xbff1ab91	-1.8880483
123	0xbf33b1dc	-0.70193267
124	0x4055bc20	3.3396072
125	0xc20dea99	-35.4791
126	0xbf6025b5	-0.87557536
127	0x40705227	3.7550142

bias f4 [32]
0	0xbe5b7da8	-0.21434653
1	0xbf3cb68e	-0.73716056
2	0xbf4fbd0b	-0.8114783
3	0xbe206e64	-0.1566711
4	0x3e6f541a	0.23371926
5	0x3ed0741f	0.40713593
6	0xbdb6aa8b	-0.08919247
7	0xbdb611ab	-0.08890089
8	0xbe427f4c	-0.18993872
9	0xbb552747	-0.0032524632
10	0xbecc54a4	-0.39908326
11	0xbe85bd37	-0.26120922
12	0xbe2b4e3a	-0.1672906
13	0xbf2067b5	-0.62658244
14	0xbebb7870	-0.36615324
15	0xbdb360e0	-0.08758712
16	0xbe0e8c07	-0.13920604
17	0xbd535378	-0.051593274
18	0x3eded4bc	0.43521678
19	0xbe9a7578	-0.30167747
20	0x3e31a616	0.17348513
21	0xbdce02df	-0.10059141
22	0xbe6cb737	-0.23116766
23	0x3c6abb52	0.014326887
24	0xbcb1ee04	-0.02171994
25	0xbf1f3d69	-0.6220308
26	0xbe35ecd1	-0.1776612
27	0xbe030af4	-0.12797147
28	0x3eb6439e	0.35598463
29	0x3e018ceb	0.12651412
30	0x3ea3ec34	0.32016146
31	0x3e79ade4	0.2438274

weight f4 [64, 32, 3, 1]
0	0xc052bf09	-3.2929099
1	0xbf8135b7	-1.0094517
2	0xbebb2bfb	-0.36556992
3	0xc1d59fa8	-26.702957
4	0xc1768a8e	-15.408827
5	0xc112a436	-9.165091
6	0xc1c50628	-24.628006
7	0xc18540a3	-16.65656
8	0xc15e1345	-13.879704
9	0x3fa1e554	1.264811
10	0x3f1e258e	0.61776054
11	0x3f202299	0.6255279
12	0xc0e6a93c	-7.2081585
13	0xbfd3083f	-1.6486892
14	0xbf34e6d0	-0.7066469
15	0x41424ece	12.144239
16	0xc1a46c3f	-20.552855
17	0x4133fad6	11.248739
18	0xbf995b9f	-1.1981086
19	0xbf945bf3	-1.1590561
20	0xbff4e00a	-1.9130871
21	0xc17d6895	-15.838033
22	0x4171a173	15.101916
23	0x411ca7aa	9.790934
24	0x41a810ca	21.008198
25	0xc13ba998	-11.728905
26	0xc100fa4d	-8.061109
27	0x410f7d81	8.968141
28	0x413d298f	11.822646
29	0xc03d0d1c	-2.9539251
30	0x4140ee87	12.058234
31	0x401eebb2	2.4831357
32	0xc16a8122	-14.656527
33	0x40f0fd70	7.530937
34	0xc13fbde4	-11.98386
35	0xc17740c2	-15.45331
36	0xbe2eaee2	-0.170589
37	0x4066fde3	3.609246
38	0xbee7c4f1	-0.45267442
39	0xc1098e7e	-8.597288
40	0x404c3ff2	3.191403
41	0x409967c7	4.793918
42	0xc1d1bed2	-26.218174
43	0xc0b94c84	-5.7905903
44	0xc14ffaaa	-12.998697
45	0xbf219e8c	-0.6313255
46	0xbe4b3e29	-0.19847931
47	0x3d5bf1d8	0.053697437
48	0x404618a8	3.095255
49	0x400cd607	2.2005632
50	0xc145fb54	-12.373859
51	0xc1bb4ada	-23.411549
52	0xc12e99cf	-10.912551
53	0xc0abceb6	-5.3689833
54	0xc0d1daf7	-6.557979
55	0x40670d3b	3.6101825
56	0xc1ad8abd	-21.692743
57	0x40051031	2.0791132
58	0x3bce414c	0.006294405
59	0xc11949de	-9.580534
60	0xc0274b65	-2.6139767
61	0x40b71e5a	5.722455
62	0x4158dc2f	13.553756
63	0x3edd9e55	0.4328486
64	0x3f91d903	1.1394352
65	0xbf963eaf	-1.173788
66	0x41205f8d	10.023328
67	0xc1386ced	-11.526593
68	0x4038c6f8	2.887144
69	0xc0d2b19b	-6.5841804
70	0x4154d175	13.301137
71	0x41977d01	18.936037
72	0xbf982606	-1.1886604
73	0x3e048496	0.12941203
74	0xbeb28d59	-0.34873465
75	0x41b215e1	22.260683
76	0x41bb06ef	23.378386
77	0x4093ee8d	4.62287
78	0xc10de8f9	-8.869378
79	0xc0137801	-2.3041995
80	0x3ef66cad	0.48129788
81	0xc0205620	-2.5052567
82	0xbfb8d715	-1.4440638
83	0xbdd0649a	-0.10175438
84	0x3ed91602	0.42399603
85	0x3e05ba3a	0.13059321
86	0xbeaf1992	-0.34199196
87	0x4218f798	38.24179
88	0x4027f21f	2.624153
89	0xc10c2e58	-8.761314
90	0xc0a74f8e	-5.2284613
91	0xc0507c14	-3.2575731
92	0xbd376650	-0.044775307
93	0x408b1236	4.345973
94	0x40bc21eb	5.8791404
95	0xc080c046	-4.023471
96	0x3d0dda10	0.03463179
97	0xbc3ed325	-0.0116470205
98	0x3e202d34	0.15642244
99	0xbd2fd98d	-0.042932082
100	0x3b528e80	0.0032128394
101	0x3e656c74	0.22404653
102	0x3d3e0c37	0.046398368
103	0xbad18dee	-0.0015987733
104	0x3b65bb1b	0.003505415
105	0x3c2fa52d	0.010720533
106	0xbcdb2b3e	-0.026754018
107	0xbbd04849	-0.0063562733
108	0xbd40c5ed	-0.047063757
109	0x3dbff097	0.09372061
110	0x3d7b0691	0.06128556
111	0x3ca5e5ee	0.02025124
112	0xbd34a3f9	-0.04410169
113	0x3af9b882	0.001905218
114	0x3e2bc1d9	0.16773166
115	0x3d6a1f29	0.057158623
116	0xbd3e76bd	-0.046499956
117	0x3d90491c	0.070451945
118	0xbc606207	-0.013695247
119	0x3d9086a4	0.07056931
120	0xbc9ec75e	-0.019382175
121	0xbd8bcf61	-0.06826664
122	0x3dd42563	0.103586935
123	0x3c439ae0	0.011938781
124	0x3cc5a87a	0.024128187
125	0x3da42dc1	0.08016539
126	0xbd13f16b	-0.036118906
127	0x3d239bfd	0.039943684
128	0x3d87f096	0.06637685
129	0x3c17fe02	0.009276869
130	0x3e083e8a	0.13305107
131	0xbc5cb661	-0.013471217
132	0xbcb2206b	-0.021743974
133	0x3db8d740	0.09025431
134	0x3d85a052	0.06524719
135	0xbdc8ef29	-0.09811241
136	0xbca7f67c	-0.020503275
137	0x3e4c1c71	0.19932725
138	0x3e0eccd4	0.13945323
139	0xbd8dd394	-0.06925121
140	0xbd5be3d2	-0.053684063
141	0xbabde86a	-0.001448882
142	0x3d23c3f7	0.03998181
143	0x3d63f305	0.055651683
144	0x3dc10e80	0.09426594
145	0x3e1402b4	0.14454156
146	0x3e006617	0.12538944
147	0xbe0fdf33	-0.14049987
148	0x3d09d07d	0.033646096
149	0x3da82e24	0.082119256
150	0x3d266b14	0.04062946
151	0xbd82e997	-0.0639221
152	0xbc47e03b	-0.012199457
153	0xbd5e50fa	-0.054276444
154	0xbc4e69d7	-0.012598476
155	0x3e4e0d4a	0.20122257
156	0x3db8750b	0.09006699
157	0x3d88b778	0.06675619
158	0x3e1360fc	0.14392465
159	0x3e1e5198	0.15460813
160	0x3db2c4dc	0.08728954
161	0x3d4f4327	0.05060115
162	0xbdda6719	-0.106641956
163	0x3d008054	0.031372383
164	0x3df6e5f2	0.12055577
165	0x3df1aa77	0.11800092
166	0x3dc225a1	0.094798334
167	0x3d9c3673	0.07627573
168	0x3e1d9398	0.15388334
169	0x3dae399f	0.08507084
170	0x3c8f1b59	0.017469095
171	0x3e317f92	0.1733382
172	0x3bafec73	0.005368763
173	0x3dae2445	0.085030116
174	0xbd1b4218	-0.03790483
175	0xbd7c94ba	-0.061665274
176	0xbca8fc27	-0.020628048
177	0x3db6be62	0.089230314
178	0x3dc3006c	0.09521565
179	0x3e08c644	0.13356882
180	0x3e0de6f0	0.13857627
181	0xbd9aad81	-0.075526245
182	0xbb9a6613	-0.004711875
183	0x3df905b5	0.12159292
184	0x3d1f9399	0.03895912
185	0x3d742f89	0.059615646
186	0x3d66178f	0.05617481
187	0xbdc7dffe	-0.0975952
188	0x3e03fe3d	0.12889953
189	0x3df7587e	0.120774254
190	0x3d34941f	0.04408657
191	0x3bc3d02f	0.005975745
192	0xbd689b10	-0.056788504
193	0x3d44b983	0.04802848
194	0xbe13e807	-0.1444398
195	0xbd6d6a28	-0.057962567
196	0xbe2c83b9	-0.16847123
197	0x3b4c914b	0.003121453
198	0x3c0c0e97	0.0085484
199	0x3ca23931	0.019802662
200	0x3d259698	0.04042682
201	0x3c3d3eb7	0.011550597
202	0xbdbc1649	-0.09183938
203	0xbdda2125	-0.10650853
204	0xbd2a39f1	-0.041559163
205	0xbdd2972f	-0.10282742
206	0xbe00c78a	-0.12576118
207	0xbcc47f26	-0.02398641
208	0xbe56d352	-0.2097905
209	0xbd8b31de	-0.06796621
210	0xbe10b084	-0.14129835
211	0xbe1dd51a	-0.15413323
212	0xbd6c3da5	-0.057675976
213	0xbd3328ea	-0.04374019
214	0xbe2617da	-0.16220036
215	0xbde79562	-0.113077894
216	0xbe7602bc	-0.2402448
217	0xbcf58454	-0.029970326
218	0xbd4ac33d	-0.0495026
219	0x3cfc21d3	0.030777847
220	0x3d883393	0.06650462
221	0xbe8afa3d	-0.27144042
222	0xbc8bfef3	-0.017089343
223	0xbe24321e	-0.16034743
224	0xbe1b008a	-0.15136924
225	0xbe67598a	-0.2259275
226	0xbe16ead3	-0.14738016
227	0x3da259b4	0.07927266
228	0xbe0e85ec	-0.13918275
229	0xbe22accd	-0.15886231
230	0xbdc575a5	-0.096415795
231	0xbd095d26	-0.0335361
232	0xbe85d98e	-0.26142544
233	0xbdd99a90	-0.106251836
234	0xbdc78f03	-0.09744074
235	0x3d0de07b	0.03463791
236	0xbcea3517	-0.028589768
237	0xbcd63181	-0.026146652
238	0xbd1b9bed	-0.0379905
239	0xbda8d689	-0.08244044
240	0x3dc2e9b3	0.09517231
241	0x3b76fe04	0.0037688026
242	0xbdcf3d65	-0.10119132
243	0xbd1c179d	-0.038108457
244	0x3d1d2cc9	0.03837279
245	0xbdc03d1a	-0.09386654
246	0xbcb678b5	-0.022274354
247	0xbdfd9cf0	-0.12383449
248	0x3b8e55d5	0.004343728
249	0xbda93ea6	-0.08263902
250	0xbd0f4a66	-0.03498306
251	0xbe099a22	-0.13437703
252	0x3d0dbe83	0.034605514
253	0xbd20a472	-0.039219327
254	0xbcac47a1	-0.02103025
255	0xbe55e29b	-0.20887224

bias f4 [64]
0	0x3d9f32d1	0.07773364
1	0x3d983e76	0.074337885
2	0xbdc5d396	-0.096594974
3	0x3d0082b8	0.031374663
4	0x3a52d501	0.00080426043
5	0xbd730427	-0.05933013
6	0x3d98d883	0.07463171
7	0xbdbaf984	-0.091296226
8	0x3c45ff4e	0.012084795
9	0x3db4047c	0.08789918
10	0xba3a59b7	-0.00071087055
11	0xbca62157	-0.02027957
12	0x3db81c7f	0.0898981
13	0x3d8d3650	0.06895125
14	0x3cf41ef1	0.02979991
15	0x3d9dcc41	0.07704974
16	0x3d1b3946	0.037896417
17	0xbdb82536	-0.089914724
18	0x3d978d77	0.07400029
19	0x3c7b6f87	0.015346414
20	0x3db908bc	0.09034869
21	0xbcc371f4	-0.023858048
22	0xbd2a49d8	-0.04157433
23	0x3d7f3806	0.062309287
24	0xbd7d6b4b	-0.0618699
25	0x3d9227d0	0.071365
26	0x3da77c99	0.08178062
27	0x3dc9525a	0.098301604
28	0xbd72c679	-0.05927131
29	0x3d494b1f	0.049143907
30	0xbd91a000	-0.07110596
31	0x3cf4f3fd	0.029901499
32	0x3cc00268	0.023438647
33	0xbd899f49	-0.06719834
34	0xbdc95e8d	-0.09832487
35	0xbb6bf2d3	-0.0036002889
36	0xbd34331d	-0.043994058
37	0x3dd75dee	0.105159625
38	0xbc97cb09	-0.018529432
39	0xbdc81634	-0.0976986
40	0x3dd95f51	0.10613883
41	0xbdab947e	-0.08377932
42	0x3da38927	0.07985144
43	0x3bca9606	0.006182435
44	0x3d25b1cb	0.04045276
45	0x3c1db754	0.009626228
46	0x3d078c3f	0.033092733
47	0x3d3d7898	0.046257585
48	0xbdbbcb9b	-0.09169694
49	0x3c068d49	0.008212396
50	0xbd428df1	-0.047498647
51	0x3d9d0f34	0.076689154
52	0xbd703e0f	-0.058652934
53	0x3d19de5e	0.03756558
54	0x3d069068	0.03285256
55	0xbd92d468	-0.071694195
56	0xbd61df3e	-0.05514454
57	0xbb6e0e11	-0.0036324302
58	0xbb75e229	-0.0037518835
59	0xbc8a10a5	-0.01685364
60	0x3d6406db	0.0556706
61	0xbd2de6fb	-0.04245661
62	0xbd6a4e58	-0.05720362
63	0x3d6a1083	0.057144653

weight f4 [32, 1, 1, 4]
0	0x3e8015aa	0.25016528
1	0x3e8c0e08	0.27354455
2	0x403d2aa9	2.9557288
3	0x3fbcacce	1.4740236
4	0xc04c880a	-3.1958032
5	0x40a767d3	5.231424
6	0x41b2555f	22.291685
7	0x418cb0aa	17.586262
8	0x414ebb19	12.920678
9	0x41756306	15.336676
10	0x4150cc12	13.049822
11	0x404d896e	3.211513
12	0xbea10db9	-0.31455782
13	0x3f155c15	0.5834363
14	0xbff7372d	-1.9313713
15	0x40465e30	3.0994987
16	0x405b2966	3.4244018
17	0x403cb8cb	2.9487789
18	0x3f113c13	0.5673229
19	0xbdd830a9	-0.10556156
20	0x418bed74	17.490944
21	0x418849ad	17.035975
22	0x3ee74586	0.4517023
23	0x4039f7c4	2.9057474
24	0xbf7d2698	-0.98887014
25	0x3edbfeea	0.42967921
26	0x404ed2fb	3.2316272
27	0x3f611925	0.8792899
28	0x41ed4052	29.656406
29	0xc0b006ac	-5.5008144
30	0xc0b16ca0	-5.54451
31	0x410cb58d	8.794324
32	0x408cdf1b	4.4022346
33	0x417b093f	15.689757
34	0x41918a06	18.192394
35	0x3fcc2d1a	1.5951264
36	0x418792c5	16.946665
37	0x408fbfca	4.4921618
38	0x41a1e6a2	20.237614
39	0x40452062	3.0801015
40	0xc0b0d3a3	-5.5258346
41	0xc112e180	-9.180054
42	0xc14ecc71	-12.924912
43	0xc10288c7	-8.158393
44	0x418ecabb	17.84899
45	0x41545028	13.269569
46	0x40f44406	7.6333036
47	0xc0049ec4	-2.0721903
48	0x41110530	9.0637665
49	0x3f699f91	0.91259104
50	0x40d4ffeb	6.65624
51	0x402a79c5	2.6636822
52	0x41f1a0f8	30.203598
53	0x412be2e1	10.74289
54	0x4027f031	2.6240351
55	0xc0d70eb0	-6.720543
56	0x41097f5b	8.593593
57	0xc1806f1c	-16.054253
58	0x3e8b1244	0.27162373
59	0x41796fbb	15.589778
60	0x3f86fc23	1.0545696
61	0x3ba5961b	0.0050532944
62	0xbe6f6c76	-0.23381218
63	0xbf0d4c81	-0.5519486
64	0x41ba4f8f	23.288847
65	0x41acbce1	21.592226
66	0x407026b9	3.7523634
67	0x418ae37f	17.361082
68	0x411f699d	9.9632845
69	0x41273ba3	10.45206
70	0x4129735e	10.590666
71	0xbf437fdf	-0.7636699
72	0x4101bb0c	8.108166
73	0x40e24428	7.07082
74	0x411df61a	9.872583
75	0x4126f7a5	10.43546
76	0x406d9411	3.7121623
77	0xc052b43a	-3.2922502
78	0xc1771b3b	-15.444148
79	0xc1b75cfe	-22.920406
80	0x41a25b76	20.294659
81	0x40b3c2d0	5.617531
82	0xc0f331a2	-7.5998087
83	0xc120b081	-10.043092
84	0xbf816d98	-1.011157
85	0xbf965f7a	-1.1747887
86	0xc0805fb2	-4.0116816
87	0xbfd85af1	-1.6902753
88	0x40e6bcb7	7.2105365
89	0x415a3955	13.638997
90	0x40cc5b60	6.386154
91	0x41aeea7e	21.864498
92	0xbff5bef7	-1.9198903
93	0xc104265e	-8.259367
94	0xc1a801de	-21.000912
95	0x415e49d7	13.893027
96	0xbec3a3dd	-0.38210955
97	0x3eb39e93	0.3508192
98	0x3e89c5bb	0.2690867
99	0x3fd2fb45	1.6482931
100	0xbcc7ad22	-0.024374548
101	0x40a142bc	5.0393963
102	0x4188cd24	17.100166
103	0xc1c553ed	-24.66598
104	0x408eb399	4.4594235
105	0x409a5b12	4.823617
106	0x3efafa9b	0.49019322
107	0x3f627df1	0.8847342
108	0xbf372974	-0.7154763
109	0x3f665b3b	0.89982957
110	0x3fd4eaa0	1.6634102
111	0xbee19aa0	-0.44063282
112	0xbea853c3	-0.32876405
113	0x3e1fa42b	0.15589969
114	0x403325f1	2.7991908
115	0x3c84ec45	0.016225943
116	0x415eafa0	13.917877
117	0x3ecb4ecd	0.39708558
118	0xc1568b50	-13.409012
119	0x40fdd980	7.9328003
120	0x3dcd9933	0.10038986
121	0x40897535	4.2955575
122	0x3fb84a25	1.4397627
123	0x3e3fcde5	0.18730886
124	0xc08315e5	-4.0964227
125	0x4162af31	14.167771
126	0x416157f2	14.083971
127	0xc0eb5c06	-7.3549833

bias f4 [32]
0	0x3d96ba97	0.07359808
1	0x3ed73157	0.4202983
2	0xbe4fe768	-0.20303118
3	0x3e5431ee	0.20722172
4	0xbea0efa0	-0.3143282
5	0x3ece3634	0.4027573
6	0x3d95314e	0.07284795
7	0xbf840c1b	-1.0316194
8	0x3e813078	0.2523229
9	0x3e513633	0.20430832
10	0x3ec974db	0.39346966
11	0x3ea5ef0b	0.32408938
12	0x3eb1aac4	0.34700596
13	0x3e3d8354	0.18507129
14	0xbd0afb11	-0.03393084
15	0xbee702e6	-0.451194
16	0x3ef537de	0.47894186
17	0xbf44241c	-0.766176
18	0xbf12bee7	-0.57322544
19	0xbe987192	-0.29774147
20	0x3f92ed2e	1.1478631
21	0xbf08f6a5	-0.5350135
22	0xbf79de31	-0.9760466
23	0xbf1302ea	-0.5742632
24	0xbf0d5eb5	-0.55222636
25	0x3f87aa03	1.0598758
26	0x3e1f0fd3	0.1553338
27	0x3db47a61	0.088124044
28	0x3e8d692d	0.27619305
29	0x3f5baa79	0.85806996
30	0xbd981686	-0.07426171
31	0xbede287b	-0.4339026

weight f4 [64, 32, 1, 3]
0	0xbf9676a5	-1.1754957
1	0x3f5aba26	0.8544029
2	0xbf9715dd	-1.1803547
3	0x41149142	9.285463
4	0x40f51c8e	7.6597357
5	0xc03db17f	-2.9639585
6	0x40cf997d	6.4874864
7	0xc126fa62	-10.436129
8	0x3f9726b0	1.1808681
9	0xbd961e40	-0.073299885
10	0xbe7ad06c	-0.24493569
11	0x3f102b49	0.5631605
12	0x3f5995bd	0.8499411
13	0x3f1083cd	0.5645111
14	0xc093b1c9	-4.6154523
15	0x40d52906	6.6612577
16	0x4048b159	3.1358244
17	0xc1f4d672	-30.60471
18	0xbee57022	-0.44812113
19	0xbfb082ea	-1.3789952
20	0x3a943cd8	0.0011309637
21	0xc137611d	-11.461209
22	0xc1181d7a	-9.507196
23	0xc1eeb9c8	-29.840714
24	0xc050dda1	-3.2635272
25	0xc16f36e9	-14.950906
26	0x3fec0e97	1.8441952
27	0x3f299121	0.66237074
28	0xc058d031	-3.387707
29	0x405d961d	3.4622872
30	0x4128312f	10.512008
31	0x40cb7239	6.357693
32	0x41d8fee7	27.124464
33	0x4151426b	13.078715
34	0x415e42a4	13.89127
35	0xc15ddc0b	-13.866221
36	0xbfccf35f	-1.6011771
37	0x3ffb3f38	1.9628668
38	0x3e8150aa	0.25256854
39	0xc121c920	-10.111603
40	0xc15b45d2	-13.704546
41	0x415b100a	13.691416
42	0xc275aee2	-61.420784
43	0xc172bb51	-15.170732
44	0x3f85f75a	1.0466111
45	0xbbc73c82	-0.006080211
46	0x3d4ab09b	0.04948483
47	0xbe88a51c	-0.26688468
48	0x4048b048	3.1357594
49	0x408da0c2	4.4258738
50	0x3f14a26c	0.58060336
51	0x3fe1188b	1.7585615
52	0xc19f8fec	-19.945274
53	0xc2186a3f	-38.103756
54	0x4136af22	11.417757
55	0x41e738f0	28.902802
56	0x41958725	18.690989
57	0x4126956c	10.41148
58	0x3ef5a254	0.4797541
59	0xc1d565c8	-26.674698
60	0xc14c22b2	-12.758471
61	0x40d5c8b4	6.68075
62	0xc1e087d6	-28.066326
63	0x3fead5df	1.8346518
64	0x3f262d0b	0.6491248
65	0xbe2ac39a	-0.16676179
66	0x413faa5b	11.979091
67	0x40818c2a	4.04836
68	0xc18ef4ff	-17.869627
69	0xc196d292	-18.852818
70	0x3e870fc0	0.26379204
71	0xc21959f5	-38.33785
72	0x3dab2731	0.083570845
73	0xbf1149d6	-0.5675329
74	0xbec9461f	-0.3931131
75	0x40c4187b	6.1279883
76	0xc1cc1b3a	-25.513294
77	0xc216d514	-37.708084
78	0x3fb80f2f	1.4379634
79	0x3f6d01dc	0.9258096
80	0xc066649a	-3.5998902
81	0xbe4c79b7	-0.19968306
82	0xc003ee49	-2.0614188
83	0x3d6fd81f	0.05855572
84	0xbf2af1c1	-0.6677514
85	0xbeca8dca	-0.395613
86	0xbe529036	-0.20562825
87	0xbeb3efbf	-0.3514385
88	0xc18de40c	-17.736351
89	0xc217ae8c	-37.920456
90	0xbe340d13	-0.17583112
91	0xbfc2767c	-1.5192409
92	0x3f887c29	1.0662891
93	0xc0e7b722	-7.241105
94	0x40ffce79	7.993954
95	0xc0db4fcd	-6.8534913
96	0xbd0d0a48	-0.034433633
97	0x3c8317d1	0.016002567
98	0xbdc4a00c	-0.09600839
99	0xbd8a2259	-0.067448325
100	0xbe37fe75	-0.17968161
101	0x3e1cd072	0.1531389
102	0xbe130391	-0.14356829
103	0xbd8ca5c8	-0.06867558
104	0xbe6ad6f3	-0.22933559
105	0xbd2bb35f	-0.04191911
106	0x3da03327	0.078222565
107	0xbddd88ef	-0.10817134
108	0xbd51ebe9	-0.051250372
109	0xbe5f49eb	-0.21805541
110	0xbd63110a	-0.05543617
111	0xbd1e7286	-0.038683437
112	0xbce518a7	-0.027965857
113	0xbe45d74d	-0.19320412
114	0xbcf630da	-0.030052591
115	0xbdeef112	-0.11667074
116	0x3c4138f1	0.011793361
117	0xbe002486	-0.12513933
118	0xbca9313f	-0.020653365
119	0xbe8a38b1	-0.26996377
120	0xbe457a54	-0.19284946
121	0xbe46f68e	-0.1942999
122	0xbdd23da4	-0.10265663
123	0xbda323e2	-0.079658285
124	0x3ddb7ae4	0.10716799
125	0x3da12bf9	0.07869715
126	0x3d69a9a8	0.057046562
127	0xbd5b3a63	-0.05352248
128	0xbdc8ccfd	-0.098047234
129	0xbdf2daaf	-0.11858117
130	0xbdda63b1	-0.10663546
131	0xbc3b398c	-0.011427294
132	0xbd99f2a9	-0.07516987
133	0xbdcf4468	-0.10120469
134	0x3dd3726e	0.1032456
135	0x3b9fd0d2	0.0048771882
136	0xbe24b397	-0.16084133
137	0xbe16566d	-0.14681406
138	0xbd39f039	-0.04539511
139	0x3e13b132	0.14423063
140	0xbe30c600	-0.17263031
141	0xbe071995	-0.13193353
142	0x3c6732b6	0.0141112115
143	0x3d028ff2	0.03187556
144	0xbe4a7518	-0.1977123
145	0xbdc01a39	-0.093800016
146	0xbe32ad7f	-0.17448996
147	0xbc7acb75	-0.015307297
148	0xbe3bc6eb	-0.183376
149	0xbe348e77	-0.17632471
150	0xbe18dce7	-0.14928018
151	0xbd5bb2b3	-0.053637218
152	0x3dba56c2	0.09098579
153	0x3d4f785d	0.050651897
154	0xbdbd4da4	-0.092433244
155	0xbc3ed78a	-0.011648068
156	0x3b6dda8d	0.0036293596
157	0x3cd4a119	0.025955724
158	0xbe9357d6	-0.2877795
159	0xbe071901	-0.13193132
160	0x3d4e8bd1	0.050426308
161	0x3ded8299	0.11597175
162	0x3df526ff	0.119703285
163	0xbe534243	-0.20630746
164	0xbe30351b	-0.17207758
165	0xbc5f421b	-0.013626601
166	0xbda15291	-0.078770764
167	0xbdc5f6c6	-0.09666209
168	0xbd3a0e65	-0.045423884
169	0xbd98521b	-0.074375354
170	0x3df8eaaa	0.121541336
171	0xbe38737a	-0.18012801
172	0xbe456a86	-0.19278917
173	0xbd84558e	-0.06461631
174	0x3d303f28	0.04302898
175	0xbe3aad75	-0.18230231
176	0xbe475bf2	-0.19468668
177	0xbe602afb	-0.21891396
178	0xbd8123a5	-0.06305627
179	0xbd674c13	-0.056469034
180	0x3d4c57f8	0.04988858
181	0xbe50106f	-0.20318769
182	0x3e234d73	0.15947513
183	0x3d74e1d2	0.05978567
184	0xbdc5e33e	-0.09662484
185	0xbe286d5b	-0.16447966
186	0x3c0f5801	0.008749009
187	0xbe3b95f0	-0.18318915
188	0xbdc83928	-0.09776527
189	0xbe1327eb	-0.14370696
190	0xbe2885eb	-0.16457336
191	0x3df1fce5	0.11815814
192	0xbe8317dc	-0.2560414
193	0xbc67e346	-0.014153307
194	0xbdbc9218	-0.09207553
195	0xbf2467af	-0.6422071
196	0xbeac2da2	-0.33628565
197	0x3dd0caea	0.10194953
198	0xbe92733e	-0.28603548
199	0xbf1b3686	-0.6063007
200	0xbe7ce7bd	-0.24697776
201	0xbe3e186a	-0.18564
202	0xbdf2be63	-0.1185272
203	0xbce8e616	-0.028430026
204	0xba453b40	-0.00075237826
205	0xbd9a4c30	-0.07534063
206	0xbe7a9d0a	-0.24473968
207	0xbe1e01c2	-0.15430358
208	0xbf0bbb44	-0.5458262
209	0xbeea3e29	-0.4575055
210	0xbc0c44d6	-0.008561334
211	0xbdcbcb4f	-0.099508874
212	0xbea6e7b9	-0.32598665
213	0xbe93e85b	-0.2888821
214	0xbedf6dd4	-0.4363848
215	0xbeafd236	-0.34340066
216	0xbf01bb8e	-0.5067681
217	0xbea7e23e	-0.32789797
218	0xbf3f308b	-0.74683446
219	0xbeafd6b4	-0.34343493
220	0xbebcd29c	-0.36879432
221	0xbee9deef	-0.45677897
222	0x3e83ac79	0.25717524
223	0xbe76715c	-0.2406668
224	0xbf002200	-0.5005188
225	0xbdf6913a	-0.120394185
226	0xbecc0c41	-0.398531
227	0xbf13b790	-0.5770197
228	0xbefa695b	-0.48908505
229	0xbef11cf2	-0.47092396
230	0xbf474567	-0.77840275
231	0x3b069302	0.00205344
232	0xbebea754	-0.37237036
233	0xbf5c2b0d	-0.8600319
234	0xbeaacfb3	-0.33361587
235	0xbe69ebbe	-0.22843835
236	0xbe59b49e	-0.21260306
237	0x3d4bc755	0.049750645
238	0x3d771c07	0.060329463
239	0xbdff7c7a	-0.12474914
240	0xbe5411ce	-0.20709917
241	0xbf0517da	-0.5198952
242	0xbeff1213	-0.49818477
243	0xbec54e85	-0.38536468
244	0xbed8745e	-0.4227628
245	0xbee3e448	-0.44510102
246	0xbf03663a	-0.5132786
247	0xbea7444c	-0.32669294
248	0xbf063e11	-0.52438456
249	0x3efa5037	0.48889324
250	0xbdfe503e	-0.12417649
251	0x3e3c743b	0.18403713
252	0xbe288d92	-0.16460255
253	0xbe2a5acb	-0.16636197
254	0xbefb5b69	-0.49093178
255	0xbcf73ef6	-0.03018139

bias f4 [64]
0	0xbe10de4a	-0.14147297
1	0xbcb85156	-0.022499721
2	0x3d8069aa	0.06270154
3	0xbb103608	-0.0022004861
4	0xbdb9b577	-0.09067815
5	0xbd8f72a0	-0.07004285
6	0x3da8f4b2	0.08249797
7	0xbcb374fa	-0.021906365
8	0xbde87e64	-0.11352232
9	0x3d407213	0.04698379
10	0xbd9e54dc	-0.077310294
11	0xbc1c3dbe	-0.009536205
12	0x3d80fae7	0.06297856
13	0xbceb1b62	-0.02869958
14	0x3d723e4a	0.059141435
15	0x398ab5df	0.00026456916
16	0xbc169d38	-0.009192757
17	0xbcf29070	-0.029609889
18	0xbd8c011c	-0.06836149
19	0x3d9edef5	0.077573694
20	0x3cfba199	0.030716704
21	0x3c63f64a	0.0139137
22	0x3c3f3609	0.011670598
23	0xbd9f1ede	-0.07769559
24	0x3d69c445	0.057071943
25	0x3d299eda	0.04141126
26	0xbd09d35a	-0.033648826
27	0x3da958c5	0.082688846
28	0xbda63b23	-0.08116748
29	0x3d587474	0.052845433
30	0xbd468798	-0.048469156
31	0xbd3edd58	-0.04659781
32	0xbcfe30c6	-0.031029116
33	0xbcb6f08d	-0.0223315
34	0x3d6bcc33	0.057567786
35	0x3dbbb3ac	0.09165129
36	0xbc318d45	-0.010836904
37	0x3dbc95aa	0.09208234
38	0xbc4f399c	-0.0126480125
39	0xbda12da0	-0.078700304
40	0xbd22fece	-0.039793782
41	0xbd5b7aaf	-0.053583797
42	0xbdcdd7ce	-0.10050927
43	0xbc8f87ec	-0.017520867
44	0x3d961c43	0.07329609
45	0x3d9a8943	0.07545712
46	0x3d0e6d90	0.034772456
47	0x3d69f50e	0.057118468
48	0xbd49f2d6	-0.049303852
49	0xbd5b1734	-0.053488925
50	0xbd66f1d6	-0.056382976
51	0x3dd065d8	0.10175675
52	0x3d7d09f1	0.06177706
53	0xbd0c3c69	-0.0342373
54	0x3d87b6bd	0.066266514
55	0x3bd647d5	0.0065393248
56	0xbbcb058c	-0.0061957296
57	0xbca609bf	-0.02026832
58	0x3d770d10	0.06031519
59	0x3d251c1c	0.04031001
60	0x3cd935ad	0.026514852
61	0xbd046ab5	-0.032328326
62	0x3d92f611	0.0717584
63	0xbd71811b	-0.058961015

weight f4 [32, 1, 1, 4]
0	0xbe892ddd	-0.26792803
1	0xbfe15fa6	-1.7607315
2	0xbffde2ce	-1.983484
3	0xbfe6684b	-1.8000578
4	0xbfb9793d	-1.4490124
5	0xc168010a	-14.500254
6	0xc0d63caa	-6.6949053
7	0x419230a9	18.27376
8	0xc0174a99	-2.363928
9	0xc1481dbe	-12.507261
10	0xc18227c4	-16.269417
11	0xc143090b	-12.189708
12	0x40bcb0b9	5.8965726
13	0xbe56af2a	-0.20965257
14	0x3c2a3f88	0.010391124
15	0x3d59e0e9	0.053193007
16	0x3f00499c	0.5011232
17	0x3f097eec	0.5370929
18	0xc008ec12	-2.1394086
19	0xc08268b6	-4.075282
20	0xc187da89	-16.981707
21	0x40793538	3.8938732
22	0xc08d8cbd	-4.42343
23	0xc1dec58d	-27.84646
24	0xbf62b404	-0.8855593
25	0xbfd37f66	-1.6523254
26	0x3f999844	1.1999593
27	0x40538f6a	3.3056283
28	0xc1785ad7	-15.522178
29	0xc1c08796	-24.066204
30	0x4165163b	14.317927
31	0x41611b7d	14.069211
32	0xc0257218	-2.5850887
33	0xc183367d	-16.401606
34	0xc12f8689	-10.9703455
35	0xc16d358e	-14.825575
36	0x3fa796a4	1.3092847
37	0xc07eb640	-3.9798737
38	0xc1c14464	-24.158394
39	0xc19d88b3	-19.691748
40	0x411fff2f	9.999801
41	0xc0c0739b	-6.014112
42	0xc1841e94	-16.51493
43	0xc0de5c12	-6.948739
44	0x40b92f45	5.78702
45	0xc100dd07	-8.053962
46	0xc18256ed	-16.292444
47	0xc1b851c2	-23.03992
48	0xbe85f76f	-0.2616534
49	0xc14eeea2	-12.93326
50	0xc04b0d4e	-3.172687
51	0x3f421859	0.758184
52	0xc0e1a658	-7.0515556
53	0xc12dab51	-10.854325
54	0xc1975b76	-18.919659
55	0x4130fd78	11.061882
56	0xc0a755f6	-5.2292433
57	0x40f2965d	7.580855
58	0xc0d85a1c	-6.7609997
59	0x417dde29	15.866738
60	0xbd84a009	-0.06475837
61	0x3d056f18	0.03257665
62	0xbf4c3e96	-0.79783
63	0xbf50d950	-0.8158159
64	0x40bae0ea	5.8399553
65	0xc177b5dd	-15.4819
66	0xc19b4356	-19.407879
67	0xbe7c5c26	-0.24644527
68	0xc1915c2f	-18.170012
69	0x3f28cbc6	0.65935934
70	0x417ad475	15.676869
71	0x41cfdd27	25.982985
72	0x4157523b	13.457576
73	0xc16a98ba	-14.662287
74	0xc055ee2b	-3.3426616
75	0xc17bd330	-15.739059
76	0x4161f33a	14.1218815
77	0xc1b7926a	-22.946491
78	0x3f8de0e1	1.1084253
79	0x3fa5c1e6	1.2949798
80	0xbfbd7434	-1.4801087
81	0x4097c9f2	4.7434015
82	0xc1824bcb	-16.287008
83	0x41ac3636	21.52647
84	0x4025b44e	2.58913
85	0xbf92fbc3	-1.1483082
86	0xbff72c43	-1.9310383
87	0xc08ca893	-4.395578
88	0xc14312d4	-12.192097
89	0x4008e69b	2.139075
90	0x4140ea3f	12.057189
91	0xc1d9afe5	-27.210886
92	0xc1428554	-12.157551
93	0x415f8b93	13.971576
94	0xc0ba17b4	-5.8153934
95	0xc183a274	-16.454323
96	0x3e4f4b76	0.2024363
97	0xbf5eda01	-0.870514
98	0xbece7e06	-0.40330523
99	0x3fde9133	1.7388061
100	0xc1a90656	-21.128094
101	0xc1b61a58	-22.762863
102	0x41987ed8	19.061935
103	0xc183809e	-16.437801
104	0xbf4656f1	-0.7747641
105	0xc04a33b8	-3.1594067
106	0xc0a750a2	-5.228593
107	0x3e308af3	0.17240505
108	0x3f1a0040	0.6015663
109	0xbfa9de3f	-1.3270949
110	0xbf85a9d7	-1.0442456
111	0x3f3165cc	0.69295955
112	0xbe89d137	-0.2691743
113	0xbf3225b7	-0.695888
114	0x3de26ee5	0.11056308
115	0x4048d7a4	3.1381617
116	0xc0345892	-2.817906
117	0x414235bd	12.13812
118	0xbe19fcda	-0.15037861
119	0xc161924c	-14.098217
120	0x3f276c26	0.65399396
121	0xc094014c	-4.6251583
122	0x3e912a33	0.28352508
123	0xbe59cc27	-0.21269284
124	0x4013220b	2.2989528
125	0xc1832297	-16.39189
126	0xc1a203da	-20.25188
127	0xbfbdddf5	-1.4833361

bias f4 [32]
0	0x3d9b813e	0.0759301
1	0xbe68c329	-0.22730698
2	0xc00414dc	-2.0637732
3	0xbee72f87	-0.45153448
4	0x3e22720d	0.1586382
5	0xbf9f6042	-1.245125
6	0xbd09a794	-0.03360708
7	0xbc632444	-0.013863627
8	0x3f92c8a4	1.1467481
9	0x3ebec8f2	0.37262684
10	0xbdf419a1	-0.11918951
11	0x3def3cae	0.116814956
12	0x3f0bd76c	0.5462558
13	0x3ee46361	0.4460707
14	0xc050e846	-3.2641768
15	0x3e1b8bf4	0.15190107
16	0xbee85344	-0.45376027
17	0x3d08a557	0.033360805
18	0xbee2d12e	-0.44300216
19	0xbf0a1b59	-0.5394798
20	0xbf245dde	-0.6420573
21	0x3e445a76	0.19175133
22	0xbd7a0bc2	-0.06104637
23	0x3fb46f00	1.4096375
24	0x3f091f40	0.5356331
25	0xbf96f291	-1.1792775
26	0xbebfe2ad	-0.37477627
27	0x3e289a63	0.16465144
28	0xbe841d12	-0.2580343
29	0x3f5e4a4a	0.86832106
30	0xbdd1a71a	-0.1023695
31	0x3f8bf336	1.0933597

weight f4 [64, 32, 1, 3]
0	0xbc5ae812	-0.013360994
1	0x3d24676a	0.040137686
2	0x3e60d71b	0.21957056
3	0x40ab8c8b	5.360906
4	0xc0a1b80c	-5.0537167
5	0xc206a830	-33.664246
6	0xc0019e37	-2.0252817
7	0xbf070b8c	-0.52751994
8	0xbe885bdf	-0.26632592
9	0x3ec91b77	0.39278767
10	0xbe2a4715	-0.16628678
11	0x3e0d6e00	0.13811493
12	0xc065e731	-3.5922358
13	0xbf999dd2	-1.2001288
14	0xbeeac713	-0.45855007
15	0xc14a2612	-12.6342945
16	0x40c275f9	6.076901
17	0x404fbd64	3.2459345
18	0xbe9a642f	-0.3015456
19	0xbdd5c3ed	-0.104377605
20	0xc035ad7e	-2.8387141
21	0xc198c680	-19.096924
22	0xc0f06b36	-7.5130873
23	0x3fcaaf18	1.5834684
24	0xbee392f6	-0.4444806
25	0x3f867254	1.050364
26	0x40636c86	3.5534987
27	0xc123ad29	-10.229775
28	0xc12f74a9	-10.9659815
29	0xc0247094	-2.5693712
30	0x41ccd746	25.605114
31	0xc19af953	-19.37174
32	0x41205805	10.021489
33	0xc14f052e	-12.938765
34	0xc139fde1	-11.624482
35	0xc078f17d	-3.8897393
36	0x3f61ac57	0.88153595
37	0xbdc2cd9c	-0.09511873
38	0xc0926901	-4.575318
39	0xc17f0128	-15.937782
40	0xc1349e62	-11.288668
41	0x42180f43	38.014904
42	0xc0bdc9f0	-5.9309006
43	0x40354dcd	2.8328736
44	0xc2651d0b	-57.278362
45	0xbe20d42d	-0.15705939
46	0xbd85bc3e	-0.06530045
47	0x3d655b70	0.055995405
48	0x4050001e	3.2500072
49	0xc164f6bb	-14.310237
50	0xc12ad3c1	-10.676698
51	0x40e351c4	7.103731
52	0xc124f2a1	-10.309236
53	0xc149d36c	-12.614117
54	0xc19cc91b	-19.598196
55	0x419d4ad4	19.661537
56	0xc23bb5e5	-46.92763
57	0x3f3d2046	0.7387737
58	0x40d0fca2	6.530839
59	0xc18f2c25	-17.896555
60	0xc081ac39	-4.0522733
61	0xbf63ba11	-0.8895579
62	0xc1cf5434	-25.916115
63	0xc081ce09	-4.056401
64	0x3f5d6c06	0.86492956
65	0x3ca7dc78	0.02049087
66	0xc142c92a	-12.174112
67	0xc0eb306f	-7.3496623
68	0xc0b783f1	-5.734856
69	0xc144bc34	-12.295948
70	0x404bc231	3.1837275
71	0xc171c9af	-15.111739
72	0x3e554833	0.20828323
73	0x3d8226f4	0.06355086
74	0xc015eeed	-2.3427079
75	0xc227f4db	-41.989117
76	0xc119bc23	-9.608432
77	0xbdece438	-0.11566967
78	0x3e3bcc29	0.183396
79	0xc0c73a89	-6.2258954
80	0xc0063146	-2.0967574
81	0x3e4d62d6	0.20057234
82	0xbf92cc31	-1.1468564
83	0xbfccf829	-1.6013232
84	0x3ee5efee	0.44909614
85	0xbf0d271b	-0.55137795
86	0xc02b744b	-2.678973
87	0xc1f64113	-30.781775
88	0xbe22cd13	-0.15898542
89	0xc21394f7	-36.895473
90	0xbe2a0d5d	-0.1660666
91	0xbe563b9c	-0.20921177
92	0xc05d1e5a	-3.4549775
93	0xc00430a0	-2.0654678
94	0xc1573bcf	-13.452102
95	0xc1187f26	-9.531042
96	0xbdc7b8f5	-0.09752075
97	0x3d80396a	0.06260951
98	0xbcb97cdb	-0.022642544
99	0x3ea48ca8	0.32138562
100	0x3cffac02	0.03120995
101	0xbd27313c	-0.040818438
102	0xbdd8c2bb	-0.10584017
103	0x3de9c321	0.11414171
104	0xbd564f2a	-0.05232159
105	0x3e085cec	0.13316697
106	0x3e44f7b5	0.19235118
107	0x3e995eac	0.2995504
108	0x3db9054a	0.09034212
109	0xbe021be6	-0.12705955
110	0x3e9cbd51	0.30613187
111	0x3e16826a	0.14698187
112	0xbc3eeb77	-0.011652819
113	0x3e35ac01	0.17741396
114	0x3ea9bdf2	0.3315273
115	0xbd978ba3	-0.073996805
116	0xbdf754b3	-0.12076702
117	0x3e2f164a	0.17098346
118	0x3de6d8ac	0.11271796
119	0xbdeeb463	-0.116555
120	0x3dd55659	0.1041686
121	0x3d1d0752	0.03833706
122	0xbdc04cff	-0.09389686
123	0xbe08ad4a	-0.13347355
124	0x3b127677	0.0022348443
125	0x3e8ce40a	0.2751773
126	0x3e3ae562	0.18251565
127	0x3dcfd977	0.101489
128	0xbd3fbd70	-0.04681152
129	0xbd811ddf	-0.063045256
130	0x3ba5c558	0.0050589256
131	0x3d324ae2	0.043528445
132	0x3e8b3c02	0.2719422
133	0x3d8a79fa	0.067615464
134	0x3cfaa34c	0.030595444
135	0xb9ef92af	-0.0004569492
136	0xbcf21e52	-0.029555473
137	0xbc57710a	-0.013149509
138	0x3e8e2dc0	0.2776928
139	0x3b6fc222	0.0036584218
140	0xbe0bedd1	-0.13664939
141	0xbdc110aa	-0.094270065
142	0x3d994250	0.07483351
143	0x3db3f2d6	0.08786552
144	0x3d414a0a	0.04718975
145	0x3e23291b	0.15933649
146	0x3d484cb0	0.04890126
147	0x3e4d2c95	0.20036538
148	0x3e5a9d6e	0.21349117
149	0xbd61da2a	-0.055139698
150	0x3e65705a	0.2240614
151	0xbd3145d9	-0.043279503
152	0x3e1b5699	0.15169753
153	0x3e33d154	0.17560321
154	0xbd775f1e	-0.060393445
155	0x3d89274b	0.06696948
156	0x3e41dbfb	0.18931572
157	0x3d386604	0.045019165
158	0x3cf35a5a	0.029706169
159	0xbcf9da8a	-0.030499715
160	0xbd5db025	-0.054123063
161	0x3e2405b4	0.160178
162	0xbd129cba	-0.035793997
163	0x3dacfe10	0.08446896
164	0x3e68fd21	0.22752811
165	0xbc1c2b37	-0.009531788
166	0x3aa34816	0.0012457396
167	0x3e56c9e3	0.20975451
168	0x3de75be7	0.11296826
169	0xbb884029	-0.004158039
170	0x3d8fae66	0.07015686
171	0x3db361a5	0.087588586
172	0x3e2c9b5e	0.16856143
173	0x3cb80457	0.022463007
174	0xbddc47bb	-0.10755869
175	0x3cf9b2fc	0.030480854
176	0xbd98950c	-0.074503034
177	0x3b3b2a68	0.0028559212
178	0xbd875b25	-0.06609181
179	0xbdb155d6	-0.0865895
180	0x3e832c42	0.25619704
181	0xbde58a18	-0.1120798
182	0x3d10388e	0.035210185
183	0xbd8df1fa	-0.06930919
184	0xbc83b5ba	-0.016077865
185	0x3c21b353	0.009869414
186	0x3e31637a	0.17323104
187	0x3c77d002	0.0151252765
188	0xbca06836	-0.019580942
189	0x3c875e0d	0.01652434
190	0xbb223920	-0.0024753287
191	0x3d01fb9f	0.031734105
192	0xbeaffe63	-0.3437377
193	0xbe8349e5	-0.25642315
194	0xbf0205ef	-0.50790304
195	0x3e77a733	0.24184875
196	0xbf01af7f	-0.5065841
197	0xbf111fb9	-0.5668903
198	0xbdfa0392	-0.12207712
199	0xbea3ea51	-0.32014707
200	0xbed52861	-0.4163237
201	0xbb8961de	-0.004192575
202	0x3e48b625	0.19600733
203	0xb7a119f3	-1.920478e-05
204	0xbef3912c	-0.47571695
205	0xbefd36e9	-0.49455956
206	0xbb16f652	-0.0023035002
207	0xbf2170bf	-0.6306266
208	0xbe4686db	-0.19387381
209	0xbd1ee30f	-0.03879076
210	0x3e69a909	0.22818388
211	0xbed46425	-0.41482654
212	0xbe1fa484	-0.15590101
213	0x3e8460bf	0.2585506
214	0xbf0c7936	-0.54872453
215	0xbef115d0	-0.47086954
216	0x3dd648dd	0.10463116
217	0xbedf1516	-0.43570775
218	0xbed42817	-0.41436836
219	0xbd9acce8	-0.07558614
220	0xbeffaafb	-0.49935135
221	0x3cca166a	0.024668891
222	0xbd06e0a2	-0.03292907
223	0x3ba08df9	0.004899737
224	0xbdf419bc	-0.11918971
225	0xbf0ad7d9	-0.5423561
226	0xbeff32f7	-0.4984357
227	0xbec6a8e7	-0.38800737
228	0x3e13bb05	0.14426811
229	0x3cb67027	0.022270275
230	0xbedf6640	-0.43632698
231	0xbe01b2e6	-0.126659
232	0xbe85ba04	-0.2611848
233	0xbe7ac9a6	-0.24490985
234	0x3da2e328	0.07953483
235	0xbd8e1529	-0.0693763
236	0xbddf2c83	-0.10897162
237	0xbe1615c3	-0.14656739
238	0xbee029a8	-0.4378178
239	0x3da1d776	0.07902424
240	0xbe0c311b	-0.13690607
241	0x3d4c026d	0.049807
242	0xbedcdb76	-0.43136185
243	0x3d5c3b25	0.053767342
244	0x3c6df969	0.014524796
245	0xbe13fbf3	-0.1445158
246	0x3d111614	0.035421446
247	0xbd557565	-0.05211391
248	0xbe9a2187	-0.30103704
249	0x3e33a1f5	0.1754225
250	0xbf11f46a	-0.5701357
251	0xbed78baf	-0.42098758
252	0x3dfe7b2f	0.12425839
253	0xbe77450c	-0.24147433
254	0xbea5d27c	-0.3238715
255	0xbeaa2f69	-0.33239296

bias f4 [64]
0	0xbade9348	-0.0016981149
1	0x3d75cbc9	0.060008798
2	0xbd012690	-0.031530917
3	0x3da6eee4	0.081510335
4	0x3da85622	0.082195535
5	0xbd12b35a	-0.035815574
6	0x3da61f09	0.08111388
7	0xbc3d0568	-0.0115369335
8	0xbdd52e07	-0.1040917
9	0x3d764e07	0.060133006
10	0x3d91b6e2	0.0711496
11	0x3dba8523	0.09107425
12	0xbcea528e	-0.028603818
13	0x3c52f738	0.012876324
14	0xbcea83ee	-0.028627362
15	0x3d944f8d	0.072417356
16	0xbd044a64	-0.032297507
17	0xbd6a6b6e	-0.05723136
18	0xbdae6ad8	-0.085164726
19	0x3b8e312e	0.004339359
20	0x3daf6bc8	0.085654795
21	0x3d2f8c9a	0.042858697
22	0xbcfb2fe6	-0.030662488
23	0xbd0db579	-0.034596894
24	0xbd20abb2	-0.03922624
25	0x3c8ff419	0.01757245
26	0xbc855747	-0.016276969
27	0xbd697482	-0.056995876
28	0x3db42265	0.08795623
29	0xbda7e437	-0.081978254
30	0xb8960964	-7.1543065e-05
31	0x3da93d80	0.08263683
32	0xbce497e6	-0.027904462
33	0xbd274e0a	-0.04084591
34	0x3c93e27b	0.01805233
35	0xbc366ee7	-0.01113484
36	0x3bcb888b	0.0062113455
37	0x3d7d3e8a	0.06182722
38	0x3d3303d8	0.043704838
39	0x3d00b7a8	0.03142515
40	0x3d5d0c1a	0.05396662
41	0xbcfcd989	-0.030865448
42	0x3d07a549	0.033116613
43	0x3d3487fd	0.044075
44	0xbdd11851	-0.10209716
45	0x3d89a2f9	0.06720538
46	0x3ce9e004	0.028549202
47	0x3d2878a3	0.041130673
48	0x3ceb1cc4	0.02870024
49	0x3d3da7ac	0.046302482
50	0xbd84cc52	-0.064842835
51	0x3a7f2be6	0.00097340194
52	0xbdb02d1b	-0.08602353
53	0xbd6da1a2	-0.058015473
54	0x3d0aa2be	0.03384661
55	0xbd5d67f3	-0.05405421
56	0x3c482513	0.01221587
57	0xbc4d5328	-0.012532033
58	0xbd561045	-0.05226161
59	0xbd3e28ac	-0.046425506
60	0x3bb879c0	0.005629748
61	0xbda24752	-0.079237595
62	0x3ce5de58	0.028060123
63	0xbcbf7a2b	-0.023373684

weight f4 [32, 1, 1, 4]
0	0x407701e8	3.8594913
1	0xbe76b178	-0.24091136
2	0xbceb1c25	-0.028699944
3	0xbfc761a0	-1.5576668
4	0xc051d641	-3.278702
5	0x41f1a513	30.205603
6	0x40be8b84	5.9545307
7	0xc0448323	-3.070504
8	0x4237fdaf	45.997738
9	0x3f9da227	1.231511
10	0x40ac2947	5.3800387
11	0xc097e143	-4.746248
12	0x3ea331be	0.31873888
13	0xbc012c05	-0.00788403
14	0xbeb34222	-0.35011393
15	0x406512b3	3.5792663
16	0x3f5c2b60	0.86003685
17	0x40a62c97	5.192943
18	0x3f72e2b7	0.9487719
19	0x3f3c136a	0.73467124
20	0x418b828f	17.43875
21	0x4181e1f0	16.235321
22	0xc1815e00	-16.170898
23	0xc1aebe6c	-21.84298
24	0xbf8e6635	-1.1124941
25	0x4042b8ef	3.0425375
26	0xbfc616e4	-1.5475736
27	0x3e894681	0.26811603
28	0x41b567e1	22.675722
29	0xc12915f6	-10.567862
30	0x3fc398e1	1.528103
31	0x410290c4	8.160343
32	0xbfaab958	-1.3337812
33	0x41da421f	27.282286
34	0x405e5f73	3.4745758
35	0xc081a1ee	-4.051017
36	0x4189c8f7	17.223127
37	0x416f09d2	14.939898
38	0xc070b9ec	-3.7613478
39	0xc14f3b58	-12.951988
40	0x414dfbdc	12.873989
41	0x419b5c52	19.420078
42	0x4157d346	13.48908
43	0x4078c199	3.8868163
44	0x41a09c30	20.076263
45	0x3fb0bd47	1.3807763
46	0xc0975dae	-4.7301855
47	0xc02a8d19	-2.664862
48	0x413e2804	11.884769
49	0x40709b54	3.7594805
50	0x3cfbbfc9	0.030731099
51	0xc0078099	-2.117224
52	0x412a21b4	10.633228
53	0x41ae5cfd	21.795404
54	0x40bf25ee	5.97338
55	0x413f8172	11.969103
56	0xc0d245ec	-6.5710354
57	0xc185325f	-16.649595
58	0x4148e547	12.555976
59	0x40356cd6	2.8347678
60	0xbf769769	-0.96324784
61	0x3e2dfefc	0.169918
62	0xbd39d258	-0.045366615
63	0xbddd6b20	-0.10811448
64	0x41bdfc01	23.748049
65	0xc1a296f3	-20.323706
66	0x40ab0727	5.344623
67	0x3fe97bdd	1.8240925
68	0x41aa8e96	21.319622
69	0x4162b94f	14.170241
70	0x40c7c0a4	6.2422657
71	0xc150387e	-13.013792
72	0x4051e6f3	3.279721
73	0x4188c948	17.098282
74	0x4124b0ac	10.293133
75	0x401ce19f	2.4512708
76	0x4057d5f2	3.3724332
77	0xbff7a0f6	-1.9345996
78	0xc1511e5f	-13.069915
79	0xc04e7c91	-3.226353
80	0x41a1079f	20.128721
81	0x409de374	4.9340153
82	0xc0a39992	-5.1124964
83	0x4130febf	11.062194
84	0x4119c446	9.610418
85	0x3fd6df86	1.6786964
86	0x3f0085d8	0.5020423
87	0xbf81ba79	-1.0135032
88	0x41379961	11.474946
89	0x41b90856	23.12907
90	0x412d9700	10.849365
91	0x412c4996	10.767965
92	0x40a6713b	5.201322
93	0x413b8d71	11.722032
94	0x4147e2bc	12.492855
95	0x41133562	9.200533
96	0x3f29d48d	0.6633995
97	0x3eea8379	0.4580343
98	0xbf9ffdb5	-1.24993
99	0xbde1eb2b	-0.11031183
100	0xc1a86e76	-21.053936
101	0x3f3a406e	0.7275456
102	0xc11550d3	-9.332232
103	0xc10a0ff4	-8.628895
104	0x3f9f33ab	1.2437643
105	0x402797ec	2.6186476
106	0xbf434a39	-0.7628513
107	0x40c8322e	6.2561255
108	0xbf5cdbf2	-0.8627311
109	0x3feb553a	1.8385384
110	0xbf38b9b2	-0.7215835
111	0xbd22c960	-0.039742827
112	0xbd901aae	-0.07036339
113	0x4004c58b	2.074557
114	0x3f18656b	0.5952975
115	0xbf2a71d1	-0.6657992
116	0xc0a56430	-5.16848
117	0x41444bdd	12.268521
118	0x40ac286a	5.3799334
119	0xc1aae3c4	-21.361214
120	0xbf732d24	-0.94990754
121	0x40693b24	3.6442347
122	0x3e8299f7	0.2550809
123	0xbfacfec7	-1.3515252
124	0xbf09f9ee	-0.5389699
125	0x41f81954	31.012367
126	0x4098855e	4.76628
127	0xc052fa73	-3.2965362

bias f4 [32]
0	0x3eeeadbd	0.46616927
1	0x3e4dcb93	0.20097189
2	0xbee6373d	-0.44964018
3	0x3e84a5ad	0.2590765
4	0x3eb3b846	0.35101527
5	0x3eb4e6a4	0.35332215
6	0x3dbf5c4b	0.09343775
7	0x3d7aef12	0.06126315
8	0x3ed5da31	0.4176803
9	0xbf100320	-0.5625477
10	0x3e1a931b	0.15095179
11	0x3ea5b8a4	0.32367432
12	0xbefff74f	-0.4999337
13	0x3e78a323	0.24280982
14	0xbf41af7f	-0.7565841
15	0x3e197296	0.14985117
16	0xbe08a430	-0.13343883
17	0xbe71992f	-0.23593591
18	0xbf268cf3	-0.6505882
19	0x3c2dde32	0.0106120575
20	0x3ebbb464	0.36661065
21	0x3e4249a5	0.18973406
22	0x3e260b2b	0.16215198
23	0xbd9cd413	-0.076576374
24	0x3e143836	0.14474568
25	0xbeb786c5	-0.35845008
26	0x3e6327e6	0.22183189
27	0xbd5f64a5	-0.05453934
28	0x3ee486b2	0.44634014
29	0x3eedbe64	0.4643432
30	0x3ec4db3e	0.3844852
31	0xbed7ccb8	-0.42148376

weight f4 [64, 32, 1, 3]
0	0xbf2151a1	-0.6301518
1	0x3e097d1f	0.13426636
2	0xc03aa3f9	-2.916258
3	0x40617201	3.5225832
4	0xc14b0096	-12.687643
5	0x3f5755d3	0.8411533
6	0x40b00380	5.5004272
7	0xc1048f12	-8.284929
8	0xbf6dbd1a	-0.9286667
9	0x3d3f06b8	0.046637267
10	0x3d2f2708	0.042761832
11	0xbe1ad8db	-0.15121786
12	0x3e42728f	0.18989013
13	0xbfc49704	-1.5358586
14	0x3f3b7de2	0.73238957
15	0xc15970e5	-13.590062
16	0x4122819e	10.156645
17	0x41963cd6	18.779705
18	0xbf8a3a70	-1.0799084
19	0xbfad9e33	-1.3563904
20	0xbf188410	-0.5957651
21	0xc1693c3e	-14.577208
22	0x40732574	3.799161
23	0x41f4cb09	30.599138
24	0x4076672b	3.8500469
25	0xc13c2565	-11.75913
26	0xbf819ab2	-1.0125334
27	0xc16baf87	-14.730353
28	0xbe57fe28	-0.21093047
29	0xc16c9b8e	-14.787977
30	0x40ba8b44	5.8295
31	0xc2a3aff6	-81.84367
32	0xc0b43f2b	-5.632711
33	0x407ea456	3.9787803
34	0x4091900f	4.5488353
35	0xc1801369	-16.009478
36	0xbf67746b	-0.90412015
37	0x3dc0bd68	0.094111264
38	0x3eb424ac	0.35184228
39	0x41393483	11.57532
40	0xc2171d95	-37.77889
41	0x418ba2a9	17.454424
42	0x4124fcb2	10.311693
43	0xc08decf9	-4.4351773
44	0xc0a1b5b0	-5.0534286
45	0x3ed9e275	0.42555586
46	0xbe71b0ac	-0.23602551
47	0x3c82eb62	0.01598138
48	0xbfad4c04	-1.3538823
49	0xc08fbca7	-4.491779
50	0x40a0d41e	5.025893
51	0xbf4b3ab0	-0.79386425
52	0xc18a58fc	-17.29345
53	0xc251a985	-52.415546
54	0xc1fcb874	-31.590065
55	0xc2ae4b7c	-87.14743
56	0xc1655e7e	-14.335569
57	0xc07b448d	-3.926059
58	0xc11d8176	-9.844107
59	0xc0a67b79	-5.2025723
60	0x4094bd7a	4.6481295
61	0x3f713c1a	0.9423233
62	0x3febb685	1.8415076
63	0x3f7ee29b	0.9956452
64	0xbe692ada	-0.22770253
65	0xc108d4df	-8.5519705
66	0x4151cf79	13.1131525
67	0xc243fc5e	-48.996452
68	0x4157cf6c	13.48814
69	0xc250c25c	-52.189804
70	0xc1e19465	-28.197458
71	0x4022b01b	2.5419986
72	0xbe1e2f89	-0.1544782
73	0x3eb807d6	0.35943478
74	0xbe81118d	-0.25208703
75	0x402b08ef	2.6724203
76	0xbfe77328	-1.8082018
77	0xc10e855e	-8.90756
78	0xbdc15d9f	-0.09441685
79	0x3f5bb1e7	0.8581833
80	0x40c108e6	6.032336
81	0x3d20dcac	0.03927295
82	0xbfa929c9	-1.3215877
83	0xbede1a3b	-0.43379387
84	0x3e182c22	0.14860585
85	0x3e2cffed	0.16894503
86	0x3e8fc030	0.28076315
87	0x40f0a14c	7.5196896
88	0x41d5f63a	26.745228
89	0x4170ba0e	15.0454235
90	0x3d2d28be	0.042275183
91	0xc02c0407	-2.6877458
92	0x3f092a2c	0.53579974
93	0x40577899	3.3667357
94	0xc17f38fa	-15.95141
95	0x400f6a27	2.240854
96	0xbdbfc866	-0.09364395
97	0x3e1becb5	0.15227015
98	0x3daae153	0.083437584
99	0x3e9b1787	0.30291387
100	0x3d2b2046	0.041778825
101	0x3dd4f4c8	0.10398251
102	0x3d5d286a	0.05399362
103	0x3d6b1253	0.057390522
104	0x3d345c1d	0.04403316
105	0xbd6b456b	-0.05743925
106	0x3e3c1810	0.18368554
107	0x3e0504e9	0.12990154
108	0xba9f7340	-0.0012165084
109	0xbe72c0c1	-0.23706342
110	0x3db9fe98	0.09081763
111	0x3d92abf3	0.07161703
112	0x3e49fc21	0.19725086
113	0x3e054f31	0.1301849
114	0x3c0257b7	0.007955483
115	0x3bc61e4a	0.006046091
116	0xbe1a69ea	-0.15079466
117	0xbd8568c3	-0.06514122
118	0xbe4bef49	-0.19915499
119	0xbe295dfc	-0.16539758
120	0x3e601cba	0.21885958
121	0x3e036503	0.12831502
122	0xbd2f8f2f	-0.04286116
123	0xbdecb43a	-0.11557813
124	0x3d918757	0.07105892
125	0x3e053ca9	0.13011421
126	0x3cdc57af	0.02689728
127	0x3cfe0d5f	0.031012235
128	0xbca91616	-0.020640414
129	0x3d5bec4b	0.053692143
130	0x3e062fb4	0.13104135
131	0x3ad9ccba	0.0016616799
132	0x3df99854	0.121872574
133	0x3da3b32c	0.07993159
134	0x3e0a330c	0.13496035
135	0x3cf62cee	0.030050721
136	0x3dce7a13	0.100818776
137	0xbdbeb086	-0.09311013
138	0xbd972051	-0.07379211
139	0xbde07460	-0.10959697
140	0x3e10fc9d	0.14158864
141	0x3d34e04b	0.044159215
142	0xbe19628a	-0.14978996
143	0xbe035594	-0.12825614
144	0xbb33a79d	-0.0027413138
145	0x3df36ab0	0.118855834
146	0x3e35cdb0	0.17754245
147	0xbd4850d2	-0.0489052
148	0x3e203af1	0.15647484
149	0xbdfd680d	-0.12373362
150	0x3d9d2ea3	0.07674911
151	0x3e35f2ff	0.17768477
152	0x3d8eb4b4	0.0696806
153	0x3d2383e8	0.039920717
154	0x3e82bada	0.2553318
155	0x3e28e293	0.16492681
156	0x3d1680e2	0.036744006
157	0xbd1e90f7	-0.038712468
158	0x3dbb8cc3	0.091577075
159	0xbd8e19bd	-0.06938503
160	0x3e670867	0.22561799
161	0x3de4ada1	0.111659296
162	0x3db5a3b6	0.08869116
163	0x3d40025f	0.04687726
164	0xbe00cf10	-0.12578988
165	0x3e800baf	0.25008914
166	0x3e221ccd	0.15831299
167	0xbddf3ef8	-0.10900682
168	0xbda25a6a	-0.07927401
169	0x3ce3acc7	0.027792348
170	0x3c697404	0.014248852
171	0x3d35ac96	0.044354044
172	0xbd3e31e0	-0.046434283
173	0xbd562ecd	-0.052290726
174	0xbe28e86c	-0.16494912
175	0xbca05dfd	-0.019576067
176	0xbd57fed2	-0.05273325
177	0xbdf09dc2	-0.1174884
178	0x3e08f24d	0.1337368
179	0x3d21f9a7	0.039544728
180	0x3e6b3d31	0.22972561
181	0x3e583116	0.21112475
182	0xbd87fb1c	-0.06639692
183	0xbaf0660d	-0.001834096
184	0xbc2769d6	-0.010218104
185	0xbdaab5f6	-0.083354875
186	0x3c469e8b	0.0121227605
187	0xbd624305	-0.055239696
188	0xbe113d9c	-0.14183658
189	0x3d9c300c	0.07626352
190	0x3e4d5efc	0.20055765
191	0x3ca8e6bd	0.020617837
192	0xbdffb7e7	-0.124862485
193	0xbe5946e1	-0.21218444
194	0xbd921cd5	-0.071344055
195	0xbeb6aa7a	-0.35676938
196	0xbe7b5ca9	-0.24547066
197	0xbe12f24a	-0.14350238
198	0xbe2a8050	-0.1665051
199	0xbd81ddc6	-0.06341128
200	0x3c64886a	0.013948539
201	0xbea27824	-0.31732285
202	0xbe714412	-0.23561123
203	0xbd961f67	-0.07330208
204	0x3e1eb5b9	0.15499009
205	0x3b064438	0.002048744
206	0xbebbe744	-0.3669988
207	0xbdf57f89	-0.11987216
208	0xbe319239	-0.17340936
209	0xbe016dd0	-0.12639546
210	0xbe7ca572	-0.24672487
211	0xbe61be7e	-0.22045323
212	0xbd40df85	-0.047088165
213	0x3e1223bb	0.14271443
214	0xbe021154	-0.12701923
215	0xbeb671c9	-0.35633686
216	0xbe48de3c	-0.19616026
217	0xbe8b91ad	-0.2725958
218	0xbdbd4c85	-0.092431106
219	0xbe8d593d	-0.27607146
220	0xbe2dada7	-0.16960774
221	0xbd9d322e	-0.07675587
222	0xbe3b156b	-0.18269889
223	0xbd563967	-0.052300837
224	0xbdc67e35	-0.09692041
225	0xbdc314fc	-0.09525487
226	0xbe6f509d	-0.23370595
227	0xbd335342	-0.043780573
228	0xbe8b109a	-0.27161103
229	0xbe4cf908	-0.20016873
230	0xbd696388	-0.056979686
231	0xbd98bc36	-0.074577734
232	0xbdb88aa4	-0.090108186
233	0xbe180d26	-0.14848766
234	0xbc8320f8	-0.016006932
235	0x3ca7ff9c	0.020507626
236	0xbe327264	-0.17426449
237	0xbd56bc1d	-0.052425493
238	0x3da93e52	0.0826384
239	0xbe14219d	-0.14465947
240	0xbd62becb	-0.055357736
241	0xbdc3f1b5	-0.09567586
242	0xbd90aff3	-0.0706481
243	0xbe2e1585	-0.17000397
244	0xbdcab1c5	-0.09897188
245	0x3d0c09ec	0.03418915
246	0xbc89cecb	-0.01682224
247	0xbe29d7a3	-0.16586165
248	0xbc75c09d	-0.014999536
249	0xbebec49c	-0.37259376
250	0xbe59a2ce	-0.21253511
251	0xbd1a3aed	-0.037653852
252	0x3c3a05ea	0.011353949
253	0xbe5ef621	-0.21773578
254	0xbe7e9d58	-0.2486471
255	0xbda86c39	-0.08223767

bias f4 [64]
0	0xbd9c38a8	-0.07627994
1	0x3d55e367	0.05221882
2	0x3dae9d63	0.08526113
3	0x3ce9aeca	0.028525729
4	0x3cb90ac5	0.022588143
5	0x3db9dea3	0.09075668
6	0xbc060f44	-0.008182351
7	0x3cc7b9be	0.024380561
8	0x3d003400	0.03129959
9	0xbdd889b3	-0.10573139
10	0xbc7bef51	-0.015376882
11	0xbd195a6d	-0.037439752
12	0x3d9f3bcb	0.077750765
13	0xbd810dfe	-0.06301497
14	0xbb4dbabc	-0.003139182
15	0x3d066f4a	0.032820977
16	0xbd1a1905	-0.037621517
17	0xbd8b8fb5	-0.06814519
18	0x3c195bf1	0.009360299
19	0xbd3bc73c	-0.0458443
20	0x3dbe7a04	0.093006164
21	0xbda8ba55	-0.08238665
22	0xbd120dc4	-0.03565766
23	0xbd7845d6	-0.060613476
24	0x3db46474	0.088082224
25	0xbda5fb3a	-0.08104558
26	0x3d512e93	0.051069807
27	0x3cf7aee8	0.030234769
28	0xbd86a8ff	-0.06575202
29	0xbdc76cc0	-0.09737539
30	0xbd38868e	-0.045050196
31	0xbd7e4dc5	-0.062085886
32	0xbbe931d1	-0.0071165343
33	0xbd6da9b2	-0.058023162
34	0x3d8d3b2a	0.0689605
35	0xbd07e386	-0.033175968
36	0x3db14fef	0.08657824
37	0x3d0972d8	0.03355679
38	0x3c76d7ca	0.015066097
39	0x3d0efecd	0.034910966
40	0x3da33c98	0.07970542
41	0x3d0fb23f	0.035082098
42	0x3d8eca10	0.06972134
43	0x3d157999	0.036492918
44	0xbd40b1ed	-0.047044683
45	0xbdcf1f3b	-0.101133786
46	0xbd01351d	-0.031544793
47	0x3d11d806	0.035606407
48	0xbd070d89	-0.032971893
49	0xbd88e6a0	-0.06684613
50	0xbd8d806f	-0.069092624
51	0xbdc85235	-0.09781305
52	0x3bb9b1e9	0.0056669605
53	0xbdc2ded3	-0.095151566
54	0xbdc7085f	-0.097183935
55	0xbc4b243d	-0.012398777
56	0xbdb995b1	-0.090617545
57	0xbcb92077	-0.022598488
58	0xbb97ef0a	-0.00463665
59	0xbcb2239d	-0.021745497
60	0x3dabb886	0.083848044
61	0x3d55d2b5	0.0522029
62	0x3d0164cb	0.031590264
63	0x3d2fbfda	0.042907573

weight f4 [32]
0	0x3cc069b7	0.023487909
1	0x40f21594	7.565134
2	0x417ac7e7	15.673804
3	0x3bb82185	0.00561923
4	0x3e23e2b0	0.16004443
5	0x40be14d6	5.9400434
6	0xbdbc6a26	-0.09199934
7	0x411b34f1	9.700425
8	0x413d3d9b	11.82754
9	0x40cd3b49	6.413487
10	0x414d40f6	12.82836
11	0x40dfde10	6.9958572
12	0x3a500164	0.00079347775
13	0x412201ca	10.125437
14	0x41450255	12.313069
15	0xba339fe7	-0.00068521354
16	0x40bce6dd	5.9031816
17	0x414a825e	12.656828
18	0x4163eb69	14.244973
19	0x4095753c	4.670561
20	0x412d3836	10.826223
21	0x3d890fb7	0.066924505
22	0x410f1149	8.94172
23	0x413175a5	11.091222
24	0xbd1d0be6	-0.038341425
25	0x410827d3	8.509723
26	0x3d8c93bb	0.06864115
27	0xbe16f426	-0.14741573
28	0x3c30d016	0.010791799
29	0x412a6367	10.649268
30	0xbd3ce27a	-0.046114422
31	0x4104e35d	8.305509
